python train.py
=========================================================================================================
Layer (type:depth-idx)                                  Output Shape              Param #
=========================================================================================================
FasterRCNN                                              [100, 4]                  --
├─GeneralizedRCNNTransform: 1-1                         [1, 3, 416, 416]          --
├─BackboneWithFPN: 1-2                                  [1, 256, 7, 7]            --
│    └─IntermediateLayerGetter: 2-1                     [1, 512, 13, 13]          --
│    │    └─Conv2d: 3-1                                 [1, 64, 208, 208]         (9,408)
│    │    └─FrozenBatchNorm2d: 3-2                      [1, 64, 208, 208]         --
│    │    └─ReLU: 3-3                                   [1, 64, 208, 208]         --
│    │    └─MaxPool2d: 3-4                              [1, 64, 104, 104]         --
│    │    └─Sequential: 3-5                             [1, 64, 104, 104]         (147,456)
│    │    └─Sequential: 3-6                             [1, 128, 52, 52]          524,288
│    │    └─Sequential: 3-7                             [1, 256, 26, 26]          2,097,152
│    │    └─Sequential: 3-8                             [1, 512, 13, 13]          8,388,608
│    └─FeaturePyramidNetwork: 2-2                       [1, 256, 7, 7]            --
│    │    └─ModuleList: 3-15                            --                        (recursive)
│    │    └─ModuleList: 3-16                            --                        (recursive)
│    │    └─ModuleList: 3-15                            --                        (recursive)
│    │    └─ModuleList: 3-16                            --                        (recursive)
│    │    └─ModuleList: 3-15                            --                        (recursive)
│    │    └─ModuleList: 3-16                            --                        (recursive)
│    │    └─ModuleList: 3-15                            --                        (recursive)
│    │    └─ModuleList: 3-16                            --                        (recursive)
│    │    └─LastLevelMaxPool: 3-17                      [1, 256, 104, 104]        --
├─RegionProposalNetwork: 1-3                            [1000, 4]                 --
│    └─RPNHead: 2-3                                     [1, 3, 104, 104]          --
│    │    └─Sequential: 3-18                            [1, 256, 104, 104]        590,080
│    │    └─Conv2d: 3-19                                [1, 3, 104, 104]          771
│    │    └─Conv2d: 3-20                                [1, 12, 104, 104]         3,084
│    │    └─Sequential: 3-21                            [1, 256, 52, 52]          (recursive)
│    │    └─Conv2d: 3-22                                [1, 3, 52, 52]            (recursive)
│    │    └─Conv2d: 3-23                                [1, 12, 52, 52]           (recursive)
│    │    └─Sequential: 3-24                            [1, 256, 26, 26]          (recursive)
│    │    └─Conv2d: 3-25                                [1, 3, 26, 26]            (recursive)
…
│    │    └─Sequential: 3-27                            [1, 256, 13, 13]          (recursive)
│    │    └─Conv2d: 3-28                                [1, 3, 13, 13]            (recursive)
│    │    └─Conv2d: 3-29                                [1, 12, 13, 13]           (recursive)
│    │    └─Sequential: 3-30                            [1, 256, 7, 7]            (recursive)
│    │    └─Conv2d: 3-31                                [1, 3, 7, 7]              (recursive)
│    │    └─Conv2d: 3-32                                [1, 12, 7, 7]             (recursive)
│    └─AnchorGenerator: 2-4                             [43242, 4]                --
├─RoIHeads: 1-4                                         [100, 4]                  --
│    └─MultiScaleRoIAlign: 2-5                          [1000, 256, 7, 7]         --
│    └─TwoMLPHead: 2-6                                  [1000, 1024]              --
│    │    └─Linear: 3-33                                [1000, 1024]              12,846,080
│    │    └─Linear: 3-34                                [1000, 1024]              1,049,600
│    └─FastRCNNPredictor: 2-7                           [1000, 5]                 --
│    │    └─Linear: 3-35                                [1000, 5]                 5,125
│    │    └─Linear: 3-36                                [1000, 20]                20,500
=========================================================================================================
Total params: 28,289,256
Trainable params: 28,132,392
Non-trainable params: 156,864
Total mult-adds (G): 37.55
=========================================================================================================
Input size (MB): 4.92
Forward/backward pass size (MB): 175.20
Params size (MB): 113.16
…
