python train.py
==========================================================================================
Layer (type:depth-idx)                   Output Shape              Param #
==========================================================================================
SSD                                      [200, 4]                  --
├─GeneralizedRCNNTransform: 1-1          [1, 3, 300, 300]          --
├─SSDFeatureExtractorVGG: 1-2            [1, 256, 1, 1]            512
│    └─Sequential: 2-1                   [1, 512, 38, 38]          --
│    │    └─Conv2d: 3-1                  [1, 64, 300, 300]         (1,792)
│    │    └─ReLU: 3-2                    [1, 64, 300, 300]         --
│    │    └─Conv2d: 3-3                  [1, 64, 300, 300]         (36,928)
│    │    └─ReLU: 3-4                    [1, 64, 300, 300]         --
│    │    └─MaxPool2d: 3-5               [1, 64, 150, 150]         --
│    │    └─Conv2d: 3-6                  [1, 128, 150, 150]        73,856
│    │    └─ReLU: 3-7                    [1, 128, 150, 150]        --
│    │    └─Conv2d: 3-8                  [1, 128, 150, 150]        147,584
│    │    └─ReLU: 3-9                    [1, 128, 150, 150]        --
│    │    └─MaxPool2d: 3-10              [1, 128, 75, 75]          --
│    │    └─Conv2d: 3-11                 [1, 256, 75, 75]          295,168
│    │    └─ReLU: 3-12                   [1, 256, 75, 75]          --
│    │    └─Conv2d: 3-13                 [1, 256, 75, 75]          590,080
│    │    └─ReLU: 3-14                   [1, 256, 75, 75]          --
│    │    └─Conv2d: 3-15                 [1, 256, 75, 75]          590,080
│    │    └─ReLU: 3-16                   [1, 256, 75, 75]          --
│    │    └─MaxPool2d: 3-17              [1, 256, 38, 38]          --
│    │    └─Conv2d: 3-18                 [1, 512, 38, 38]          1,180,160
│    │    └─ReLU: 3-19                   [1, 512, 38, 38]          --
│    │    └─Conv2d: 3-20                 [1, 512, 38, 38]          2,359,808
│    │    └─ReLU: 3-21                   [1, 512, 38, 38]          --
│    │    └─Conv2d: 3-22                 [1, 512, 38, 38]          2,359,808
│    │    └─ReLU: 3-23                   [1, 512, 38, 38]          --
│    └─ModuleList: 2-2                   --                        --
│    │    └─Sequential: 3-24             [1, 1024, 19, 19]         12,848,640
│    │    └─Sequential: 3-25             [1, 512, 10, 10]          1,442,560
│    │    └─Sequential: 3-26             [1, 256, 5, 5]            360,832
│    │    └─Sequential: 3-27             [1, 256, 3, 3]            328,064
│    │    └─Sequential: 3-28             [1, 256, 1, 1]            328,064
├─SSDHead: 1-3                           [1, 8732, 5]              --
│    └─SSDRegressionHead: 2-3            [1, 8732, 4]              --
│    │    └─ModuleList: 3-29             --                        534,648
│    └─SSDClassificationHead: 2-4        [1, 8732, 5]              --
│    │    └─ModuleList: 3-30             --                        668,310
├─DefaultBoxGenerator: 1-4               [8732, 4]                 --
==========================================================================================
Total params: 24,146,894
Trainable params: 24,108,174
Non-trainable params: 38,720
Total mult-adds (G): 30.60
==========================================================================================
Input size (MB): 4.92
Forward/backward pass size (MB): 202.88
Params size (MB): 96.59
Estimated Total Size (MB): 304.38
…
